model_state3.tar (torch_old, 868763 bytes, 58 tensors)

weight_hh_l0 f4 [200, 50]
-0.050142564 0.073307365 -0.017263971 -0.05179228 -0.04728598 -0.015761763 0.053768948 -0.01288031
-0.096172184 0.041132897 0.06031041 -0.10761252 0.09414153 0.023119897 -0.03743741 -0.014777452
0.12579168 0.05734949 0.049982592 0.030146718 0.06017965 -0.09864998 -0.057952963 0.07509191
-0.00017055869 0.050034747 0.09428361 0.1294731 0.047634855 0.02909115 -0.048063897 -0.05253984
0.03410992 -0.029935934 -0.045828752 0.066712946 -0.122206226 0.03204623 -0.12076883 -0.09120636
-0.051363863 0.0854433 -0.13313754 -0.12554973 -0.0714715 0.02332358 -0.07461274 -0.010053456
0.070146695 -0.04539541 -0.06679883 -0.0053256303 0.12122275 0.0372442 -0.1123694 -0.0125269
-0.019119635 -0.03784094 -0.11338395 -0.006368369 0.06785411 0.08631627 0.0736583 0.027191922
0.018323347 -0.097920254 -0.102098554 0.079475746 -0.118193865 0.08702077 -0.007719785 -0.051747516
0.04025404 -0.035580084 0.12159552 -0.090113714 0.045817807 0.071604416 -0.062020876 0.05389881
0.07490167 -0.018495642 0.037237912 -0.083961666 0.09197055 0.037118956 0.012050658 -0.11922963
-0.04304883 0.123319164 -0.04596871 -0.01469177 0.05676791 0.051325873 -0.13891447 0.070494235
0.13353665 -0.1038011 0.060511902 -0.14054517 0.14099173 0.054004565 0.090142116 0.0589173
0.09468815 -0.0694269 -0.025687225 -0.05981572 -0.068629354 -0.1335739 -0.1343563 0.018237308
0.09215303 0.02096212 0.08082323 0.13233857 0.13819896 -0.1372569 -0.09447714 0.052937105
-0.009120017 0.117707714 -0.036870584 -0.10598555 -0.14137739 0.09762345 0.12436043 -0.029226482
0.108675584 -0.07638049 -0.012830287 0.12561671 0.064564675 -0.059774093 0.017150968 0.06482084
0.1011879 -0.1208339 0.08698948 0.005491346 0.04130295 0.07189602 0.13054858 0.0660799
-0.036717832 0.013120979 -0.1226998 -0.09602634 -0.11410088 -0.03650686 0.13080163 0.0029341578
0.08721559 -0.06510579 0.09663561 -0.10804264 0.11709957 0.10266164 0.040535003 -0.028879106
0.10471758 -0.080878824 -0.14066304 0.1400223 -0.06336416 -0.1025221 0.017938346 0.015925169
-0.023371764 -0.06823796 -0.09438619 0.0116588175 -0.06941005 -0.009634674 -0.04418984 -0.1358872
0.10672538 0.06982641 -0.037934273 -0.12999472 -0.027914904 0.12310009 -0.0025655478 0.0280516
0.07730301 -0.06737486 -0.106607676 0.038088903 0.016245812 0.05347623 -0.05294481 -0.000173226
0.030265018 0.019841865 -0.02294802 -0.09816076 0.0039312094 0.07624823 0.12049954 -0.047446482
-0.13476944 -0.0032218248 0.13163416 -0.13350719 -0.021291643 0.1041552 0.037516624 -0.05680962
-0.11318569 0.045835227 0.13678415 0.00752078 -0.051378295 -0.07413061 0.111739025 -0.07090247
0.04089351 0.097130954 0.047142282 -0.13818097 -0.095424466 0.023133397 0.041094393 -0.098509885
0.029947937 -0.046383247 0.07600255 -0.11687915 -0.07245 -0.10493608 0.027538627 -0.030824102
-0.007581979 0.047390148 0.114962354 -0.13071053 -0.09375419 -0.059997573 -0.12895806 0.057336956
-0.10173023 0.058778197 0.11110313 -0.10199779 -0.040649675 0.028443858 -0.12320829 -0.09475472
-0.06721556 -0.06667173 0.055679873 -0.09533191 -0.027086705 0.1251521 -0.034275807 -0.052065387
00000000: 4a62 4dbd 2c22 963d 2c6d 8dbc 2424 54bd
00000010: f2ae 41bd d01e 81bc d43c 5c3d f007 53bc
00000020: ecf5 c4bd f87a 283d 0c08 773d f463 dcbd
00000030: 46cd c03d f065 bd3c f857 19bd 201d 72bc
00000040: 89cf 003e 4ce7 6a3d 8cba 4c3d 40f6 f63c
00000050: f07e 763d 0009 cabd 1660 6dbd cac9 993d
00000060: 00d8 32b9 3cf1 4c3d c417 c13d 9994 043e
00000070: c41c 433d 9050 ee3c a6de 44bd 0434 57bd
00000080: d8b6 0b3d 343c f5bc eeb6 3bbd cca0 883d
00000090: 4247 fabd e842 033d a655 f7bd 66ca babd
000000a0: ea62 52bd e6fc ae3d 3555 08be 1c90 00be
000000b0: a65f 92bd 1811 bf3c 90ce 98bd 40b7 24bc
000000c0: 12a9 8f3d 8af0 39bd d3cd 88bd a082 aebb
000000d0: a243 f83d 608d 183d ee21 e6bd a03d 4dbc
000000e0: c8a0 9cbc 1aff 1abd d835 e8bd c0ad d0bb
000000f0: 18f7 8a3d 96c6 b03d 2ada 963d 98c1 de3c
00000100: d81a 963c 6a8a c8bd 0c19 d1bd 2ec4 a23d
00000110: a00f f2bd f237 b23d 40f6 fcbb 34f5 53bd
00000120: 6ce1 243d 6cbc 11bd 1207 f93d 8a8d b8bd
00000130: 74ab 3b3d 56a5 923d 9a09 7ebd 00c5 5c3d
00000140: 0c66 993d 2c84 97bc c886 183d 18f4 abbd
00000150: 0e5b bc3d 0c0a 183d 2070 453c aa2e f4bd
00000160: f853 30bd c28e fc3d b049 3cbd c0b5 70bc
00000170: 7885 683d 143b 523d 983f 0ebe 485f 903d
00000180: d5bd 083e ac95 d4bd 54db 773d 13eb 0fbe
00000190: 2360 103e e433 5d3d 6e9c b83d 4453 713d
000001a0: dceb c13d b12f 8ebd 046e d2bc 5401 75bd
000001b0: 8c8d 8cbd 99c7 08be b394 09be 6866 953c
000001c0: baba bc3d c0b8 ab3c a686 a53d c383 073e
000001d0: 0784 0d3e 138d 0cbe 3b7d c1bd 94d4 583d
000001e0: 206c 15bc be10 f13d 9c05 17bd f40e d9bd
000001f0: 3cc5 10be ceee c73d aeb0 fe3d 606c efbc
00000200: 4e91 de3d 606d 9cbd 2036 52bc aba1 003e
00000210: 7c3a 843d aed5 74bd 3080 8c3c cac0 843d
00000220: 9a3b cf3d c477 f7bd 8a27 b23d c0f0 b33b
00000230: 482d 293d 383e 933d 87ae 053e e654 873d
00000240: 7065 16bd 60f9 563c 084a fbbd 75a9 c4bd
00000250: b9ad e9bd 3888 15bd ddf0 053e 004b 403b
00000260: 169e b23d 2f56 85bd e4e8 c53d 7645 ddbd
00000270: e6d1 ef3d 4440 d23d 0808 263d e093 ecbc
00000280: 2c76 d63d cca3 a5bd f909 10be 0162 0f3e
00000290: 12c5 81bd 1bf7 d1bd 70f3 923c 8075 823c
000002a0: 2476 bfbc 58c0 8bbd 8c4d c1bd a004 3f3c
000002b0: db26 8ebd c0da 1dbc 6800 35bd 0426 0bbe
000002c0: d692 da3d 2601 8f3d f860 1bbd 561d 05be
000002d0: ccad e4bc e61b fc3d c022 28bb 78cc e53c
000002e0: 0a51 9e3d d5fb 89bd 2055 dabd 1c03 1c3d
000002f0: f015 853c e409 5b3d a8dc 58bd 00a4 35b9
00000300: 58ee f73c 688b a23c 7cfd bbbc 8208 c9bd
00000310: 60d1 803b 0828 9c3d 76c8 f63d 3e57 42bd
00000320: 0001 0abe 4025 53bb 1bcb 063e 1cb6 08be
00000330: d06b aebc 524f d53d 08ab 193d 34b1 68bd
00000340: e6cd e7bd b8bd 3b3d 2511 0c3e e070 f63b
00000350: 0c72 52bd cad1 97bd 6ed7 e43d 5035 91bd
00000360: f47f 273d 98ec c63d 4418 413d 507f 0dbe
00000370: e76d c3bd 4082 bd3c 9852 283d 8dbf c9bd
00000380: 6055 f53c 5cfc 3dbd 3aa7 9b3d 565e efbd
00000390: aa60 94bd bae8 d6bd b098 e13c d482 fcbc
000003a0: 4072 f8bb 2c1c 423d 6271 eb3d fbd8 05be
000003b0: 3202 c0bd 04c0 75bd 950d 04be 28da 6a3d
000003c0: f057 d0bd 68c1 703d 0a8a e33d 38e4 d0bd
000003d0: 4680 26bd 1803 e93c a154 fcbd c30e c2bd
000003e0: 50a8 89bd 308b 88bd 9410 643d 603d c3bd
000003f0: f0e4 ddbc df27 003e ca64 0cbd 8442 55bd

bias_ih_l0 f4 [200]
-0.04729721 -0.097826466 0.122125104 -0.064569905 -0.021231472 -0.04621441 0.06491357 -0.0837798
-0.06391598 0.02635029 -0.06224215 0.09573954 0.09687765 0.08226459 -0.07245801 0.013096988
-0.069207795 -0.12223779 -0.101267606 0.07915726 0.09554082 0.018559977 -0.001240328 -0.07073912
0.017501712 0.0016757399 -0.008640468 0.07651685 0.050944015 -0.030766226 0.087370425 0.09016384
0.010498613 -0.07095905 -0.049540535 0.037219897 -0.128031 -0.108838275 0.14053677 -0.045357466
-0.06911761 -0.036007605 -0.13448405 0.11109923 0.024605691 0.03996606 0.058974102 -0.109078966
-0.080532774 0.045081943 -0.059465364 0.025025323 0.08316001 -0.0980432 0.051524594 -0.10287945
-0.07252826 -0.0014153868 0.0068755 0.13836293 0.0017453581 0.039651453 -0.012323469 -0.062267467
0.061197996 -0.0160463 -0.03943728 -0.011223227 -0.048095472 -0.007229671 -0.096684605 -0.09747732
-0.029662162 0.10272083 0.081898615 -0.12158058 -0.008307517 -0.05039531 0.1303298 0.13936277
-0.007849336 -0.02959358 -0.092698425 0.04020059 -0.060485587 0.08217086 0.035370007 -0.072086066
-0.13150476 -0.022880882 0.0874356 -0.099313065 -0.021757722 0.062618926 0.013574973 0.014436811
0.12230165 -0.10125319 0.13314106 -0.10509543 -0.099240065 -0.0081641525 -0.10165667 -0.048446827
0.0027450472 -0.063945405 -0.08042482 0.016672567 -0.093221664 -0.0009025037 0.016073003 0.08950794
-0.12846705 -0.1103385 -0.1199628 0.11049901 0.03285201 0.1350907 0.08891466 0.0022236407
0.038626775 -0.011711806 0.00061909854 -0.13992184 -0.1235728 -0.12650745 0.04920642 0.124755934
-0.07969777 -0.017785266 0.08105472 0.13917287 -0.022789493 -0.033769503 -0.05618318 -0.0019302815
-0.030290805 -0.07341366 -0.056211323 0.03929624 0.03475009 -0.02288837 -0.0017719269 0.04776852
-0.13967904 0.122215435 0.09548934 -0.05811449 0.06856255 0.049632728 0.1349114 0.035554156
0.042761773 0.10492164 0.07723963 -0.008679703 -0.059810728 0.11038475 -0.06358751 -0.054607064
0.086110815 -0.0007124543 0.102606475 -0.018866427 -0.029451512 0.12819521 0.10758942 0.058685735
0.08371249 0.06828238 0.058552876 -0.041758597 0.044987425 -0.09815779 0.06978591 0.058495328
0.10510871 -0.007306516 -0.034667388 0.03298351 0.09997302 -0.048073992 0.03878738 -0.025243685
0.06390199 0.015106291 0.12497251 -0.0874153 0.093676835 0.10647032 0.003632024 -0.029760957
-0.031865366 -0.13095213 0.07662623 0.017665654 0.044711307 -0.14125328 0.06595215 0.088129506
00000000: b8ba 41bd 3e59 c8bd ba1c fa3d 3a3d 84bd
00000010: a0ed adbc 524b 3dbd 68f1 843d be94 abbd
00000020: 62e6 82bd 90dc d73c a0f1 7ebd 1813 c43d
00000030: ca67 c63d 567a a83d dd64 94bd c094 563c
00000040: d1bc 8dbd ce57 fabd 6465 cfbd 341d a23d
00000050: e8aa c33d 180b 983c 8092 a2ba acdf 90bd
00000060: c05f 8f3c 80a4 db3a c090 0dbc deb4 9c3d
00000070: acaa 503d 7409 fcbc 44ef b23d d2a7 b83d
00000080: 6002 2c3c fa52 91bd 04eb 4abd e473 183d
00000090: 8f1a 03be 9ae6 debd dfe8 0f3e c0c8 39bd
000000a0: 898d 8dbd b67c 13bd 30b6 09be fe87 e33d
000000b0: e091 c93c 74b3 233d d48e 713d cb64 dfbd
000000c0: 5eee a4bd d8a7 383d f491 73bd e801 cd3c
000000d0: cc4f aa3d e0ca c8bd 740b 533d 76b2 d2bd
000000e0: b289 94bd 8084 b9ba e04b e13b 03af 0d3e
000000f0: 80c4 e43a 9069 223d 60e8 49bc 2c0c 7fbd
00000100: c0aa 7a3d 8873 83bc fc88 21bd a0e1 37bc
00000110: c2ff 44bd e0e6 ecbb 9402 c6bd 30a2 c7bd
00000120: 10fe f2bc 4c5f d23d 76ba a73d 3dff f8bd
00000130: 401c 08bc 506b 4ebd 2d75 053e 1db5 0e3e
00000140: 809a 00bc 3c6e f2bc acd8 bdbd 60a9 243d
00000150: bcbf 77bd 3249 a83d 24e0 103d dca1 93bd
00000160: 2fa9 06be b070 bbbc 7011 b33d a664 cbbd
00000170: 403d b2bc 5a3e 803d 9069 5e3c 6088 6c3c
00000180: 4a79 fa3d d55d cfbd 2156 083e 463c d7bd
00000190: 603e cbbd f0c2 05bc 5f31 d0bd 2e70 46bd
000001a0: 40e6 333b cff5 82bd c5b5 a4bd e894 883c
000001b0: 00eb bebd 0096 6cba 88ab 833c f04f b73d
000001c0: de8c 03be 27f9 e1bd 0eaf f5bd 4e4d e23d
000001d0: d48f 063d 3755 0a3e e418 b63d 80ba 113b
000001e0: 1c37 1e3d e0e2 3fbc 004b 223a ac47 0fbe
000001f0: bc13 fdbd 2b8b 01be ac8c 493d 0a80 ff3d
00000200: 9638 a3bd 68b2 91bc 0400 a63d 5583 0e3e
00000210: 08b1 babc e451 0abd 5620 66bd 8001 fdba
00000220: 6c24 f8bc e759 96bd d83d 66bd 18f5 203d
00000230: 1c56 0e3d 6480 bbbc 0040 e8ba eca8 433d
00000240: 0608 0fbe 164c fa3d ea8f c33d 7609 6ebd
00000250: 866a 8c3d b04b 4b3d 3726 0a3e 3ca1 113d
00000260: f826 2f3d 28e1 d63d d02f 9e3d 5035 0ebc
00000270: 18fc 74bd 6611 e23d 2b3a 82bd a8ab 5fbd
00000280: de5a b03d 00c4 3aba 5823 d23d c48d 9abc
00000290: 4c44 f1bc 9b45 033e d857 dc3d 7460 703d
000002a0: 7471 ab3d a2d7 8b3d 24d5 6f3d 100b 2bbd
000002b0: bc44 383d f406 c9bd eaeb 8e3d cc98 6f3d
000002c0: 3c43 d73d 806b efbb 64ff 0dbd b819 073d
000002d0: a8be cc3d 3ce9 44bd 84df 1e3d d8cb cebc
000002e0: 0cdf 823d 6080 773c 96f1 ff3d cb06 b3bd
000002f0: a4d9 bf3d 1c0d da3d 4007 6e3b 40cd f3bc
00000300: 4285 02bd 5118 06be 36ee 9c3d 90b7 903c
00000310: 3423 373d b3a4 10be ec11 873d 3e7d b43d

bias_hh_l0 f4 [200]
-0.09569207 -0.11990202 0.08672583 -0.09499907 0.08228867 -0.02061411 -0.026243262 -0.06869101
-0.12830721 0.13364385 -0.087144986 0.098539814 0.10566735 0.024483353 0.11835526 -0.08995204
0.0651875 0.077194914 -0.11557489 -0.044052817 -0.047865234 -0.12230328 -0.10697545 0.06532648
0.053230077 -0.05672963 -0.09623463 0.085167214 0.04712242 0.12520899 0.11590685 -0.0034023076
0.0864698 -0.13929491 -0.115991905 -0.099547945 -0.06667994 -0.0024025887 -0.07630918 -0.07430655
0.044958055 -0.03128343 0.008647472 -0.0634905 0.13720547 0.0244212 0.043677285 0.0031841844
0.1267793 -0.040031113 0.11807333 0.08144438 0.05444877 0.13102667 -0.102654204 -0.047836117
0.129698 -0.13758281 0.062290505 0.1103984 0.06404276 -0.023413181 -0.010516763 0.03536141
0.04338023 0.10222086 0.095272034 0.077153355 0.0733297 0.09627496 0.105305105 -0.07968865
0.03953889 0.07466039 -0.047669165 -0.00026150048 -0.10141643 0.101322144 0.12205146 -0.12208097
-0.013787478 0.098895386 0.10365133 0.094613805 -0.11090534 -0.082018346 0.031501755 0.14130722
-0.0891802 0.017346233 -0.07662707 0.12750371 0.10665889 0.01202406 -0.08455865 -0.044695422
-0.12255338 0.07112029 -0.0029368252 0.09897061 -0.04998996 -0.07922841 0.12955184 -0.047269933
0.1359831 0.1314813 0.09618245 0.1357757 -0.06270716 -0.12780906 0.03700313 -0.020015337
-0.036822796 -0.045288563 -0.050830044 0.1370932 -0.12890403 -0.07436019 -0.074315555 0.11256634
0.03659655 -0.13168237 0.13276361 0.06553039 -0.030886188 0.09186737 -0.0011024922 -0.08657034
0.094798446 -0.026768051 0.052088857 0.024942234 -0.106298774 0.03949371 -0.05207029 0.042318106
-0.01090686 -0.0846023 0.086332545 0.018611342 -0.014356941 -0.12752594 0.05607854 -0.09180708
-0.056549273 0.1369295 0.038260162 0.054854497 -0.122452736 0.11942233 -0.10638787 -0.13195518
0.06488359 -0.08679195 -0.10803917 -0.012752354 0.10536489 -0.07906973 -0.05164007 -0.02333565
-0.0308581 0.06651126 -0.020393662 0.093353435 0.084260434 0.07029247 0.09363167 0.13752763
-0.0066094548 0.09132822 0.1374559 0.08356574 -0.022347808 0.09407544 -0.006870255 -0.087113425
-0.09861756 -0.036438398 0.068907976 0.07573275 0.089017674 -0.028256863 0.12823255 -0.11784042
-0.12258364 0.13384868 0.12316723 0.07638383 0.0070045143 0.005398482 -0.017008752 0.10667731
-0.11165166 0.115895465 -0.076111145 -0.089445636 0.0926092 -0.00024038553 -0.013906404 0.0829543
00000000: 34fa c3bd 318f f5bd 509d b13d df8e c2bd
00000010: f686 a83d ecde a8bc 1cfc d6bc dfad 8cbd
00000020: f762 03be efd9 083e 1279 b2bd 3ecf c93d
00000030: 2068 d83d 5091 c83c 3e64 f23d c638 b8bd
00000040: 0681 853d 5e18 9e3d 87b2 ecbd ba70 34bd
00000050: 560e 44bd 247a fabd f215 dbbd e4c9 853d
00000060: c807 5a3d 545d 68bd a916 c5bd 266c ae3d
00000070: 7003 413d c936 003e 9260 ed3d 40f9 5ebb
00000080: 1417 b13d 53a3 0ebe 2a8d edbd cbdf cbbd
00000090: 7e8f 88bd c074 1dbb fd47 9cbd 082e 98bd
000000a0: f025 383d 0e23 00bd 20ae 0d3c 4f07 82bd
000000b0: 977f 0c3e f80e c83c f4e6 323d c0ad 503b
000000c0: 6fd2 013e aaf7 23bd 6ed0 f13d 50cc a63d
000000d0: ac05 5f3d db2b 063e 5e3c d2bd ceef 43bd
000000e0: 8dcf 043e 82e2 0cbe 5424 7f3d 8e18 e23d
000000f0: da28 833d 00cd bfbc 804e 2cbc 20d7 103d
00000100: 78af 313d 2c59 d13d fc1d c33d 9402 9e3d
00000110: e22d 963d ce2b c53d 34aa d73d ce33 a3bd
00000120: 88f3 213d 8ce7 983d be40 43bd 001a 89b9
00000130: 6bb3 cfbd fc81 cf3d 1ef6 f93d 9605 fabd
00000140: e0e4 61bc aa89 ca3d 2647 d43d e2c4 c13d
00000150: 5722 e3bd 3cf9 a7bd fc07 013d d7b2 103e
00000160: 1ca4 b6bd b019 8e3c a7ee 9cbd 5590 023e
00000170: fa6f da3d 9000 453c 162d adbd 8c12 37bd
00000180: 44fd fabd 84a7 913d c077 40bb 1ab1 ca3d
00000190: 46c2 4cbd 8142 a2bd 3da9 043e 1e9e 41bd
000001a0: 273f 0b3e 09a3 063e 4efb c43d c908 0b3e
000001b0: 9d6c 80bd 61e0 02be 9890 173d 34f7 a3bc
000001c0: 80d3 16bd 8080 39bd 2a33 50bd 2962 0c3e
000001d0: 6bff 03be 284a 98bd c132 98bd 2e89 e63d
000001e0: 44e6 153d bed7 06be 2ff3 073e cc34 863d
000001f0: 0805 fdbc f624 bc3d 8081 90ba ca4b b1bd
00000200: b025 c23d ac48 dbbc 205b 553d a853 cc3c
00000210: 2cb3 d9bd 28c4 213d a847 55bd c055 2d3d
00000220: b0b2 32bc f843 adbd 1ecf b03d d076 983c
00000230: 6039 6bbc 2996 02be 9cb2 653d 5a05 bcbd
00000240: 36a0 67bd 3f37 0c3e b0b6 1c3d 1caf 603d
00000250: 80c8 fabd b293 f43d e2e1 d9bd 421f 07be
00000260: b0e1 843d fabf b1bd a443 ddbd 40ef 50bc
00000270: 8cc9 d73d 50ef a1bd 8a84 53bd 682a bfbc
00000280: 20ca fcbc 0e37 883d 9c10 a7bc 1630 bf3d
00000290: bc90 ac3d 80f5 8f3d f6c1 bf3d 0bd4 0c3e
000002a0: 2094 d8bb 4a0a bb3d 3dc1 0c3e 8424 ab3d
000002b0: c012 b7bc a0aa c03d e01f e1bb 8668 b2bd
000002c0: 01f8 c9bd 6e40 15bd a01f 8d3d c619 9b3d
000002d0: e64e b63d f07a e7bc 654f 033e 5156 f1bd
000002e0: 220d fbbd a10f 093e 1a3f fc3d 206f 9c3d
000002f0: 2086 e53b c0e5 b03b f055 8bbc a279 da3d
00000300: a0a9 e4bd 9a5a ed3d 29e0 9bbd 462f b7bd
00000310: e4a9 bd3d 0010 7cb9 b0d7 63bc f2e3 a93d

weight_hh_l0_reverse f4 [200, 50]
0.030263856 0.06318046 -0.068068594 0.055058315 0.07624006 0.008632854 -0.106502645 0.11321987
0.08655514 -0.07319471 -0.036728993 0.049191445 -0.094355434 0.056378007 -0.093349546 0.12046419
0.043119714 -0.099752486 -0.09101938 -0.034246624 -0.04541962 0.07909043 0.07108471 -0.09674388
0.13778757 0.04782428 -0.016286626 -0.033550344 -0.09833762 0.10209225 0.10739763 0.003330022
-0.0575843 -0.062543444 0.117825374 0.059928015 -0.14139932 0.08964218 0.029346362 0.038545474
-0.12376815 -0.05383358 -0.08419569 0.11910714 0.036958307 -0.07794055 -0.100216955 -0.015815124
0.08008665 -0.03025616 -0.07555138 -0.009697095 -0.008010015 0.034434333 0.10853647 0.09808804
0.10013248 -0.113885276 -0.12289907 0.10067241 0.084605485 0.11290626 -0.048395388 0.09839785
0.11129756 -0.121114485 0.052712396 -0.03369838 -0.11986731 0.108930305 0.060034588 -0.03301616
0.082304925 0.018975466 0.009645283 -0.106827915 -0.138244 -0.06274061 -0.04587181 0.010791466
-0.11064924 0.09881176 0.029368266 0.1168146 0.12991141 0.10165274 0.074877635 -0.08280593
0.10854134 0.005944133 0.06293665 0.13666637 0.08464396 -0.094782196 0.11091654 0.0792225
0.118380055 -0.095764555 0.09691486 0.09413017 0.08547978 0.12234686 -0.11276894 0.121524975
0.13263322 -0.074271485 0.13241784 0.09568754 -0.12390901 -0.050674893 -0.07651226 -0.14067554
0.039087802 -0.040814437 -0.09920202 -0.048850372 -0.086483635 -0.11840035 0.094335556 -0.005862355
-0.061449654 0.074285135 0.0787182 0.01994498 0.045672014 -0.12990971 0.005577624 0.081773505
0.101452306 0.095963985 0.03475724 0.118396714 0.06352225 -0.103120714 -0.08317408 -0.114076115
-0.12786232 -0.09696615 -0.065155186 0.07527274 -0.013109222 0.057660446 -0.07672924 0.11614142
0.1257479 0.051443815 0.029893652 0.107475266 0.06373899 -0.08322385 0.02633214 0.04587707
0.0040764958 0.12021886 0.029226393 0.1359963 0.13668354 0.03932953 -0.07519138 0.055375814
-0.10171416 -0.09246545 0.1262315 -0.006599739 0.035454646 0.010619909 -0.12251553 0.06390087
-0.01139684 -0.1219014 -0.055349432 0.036832333 0.093340695 0.0055279285 -0.02023597 -0.08168483
-0.07116804 0.058286577 -0.099252895 0.11312245 0.13000305 0.048841372 -0.10960451 0.024500415
0.0751065 -0.09978139 0.0901802 -0.10131854 0.11739828 0.09746559 0.12162064 0.030138433
0.031000465 0.073534235 0.111609206 -0.09693 0.08414994 0.07690865 -0.0004955083 0.10950883
0.11653449 0.1410122 -0.13298443 0.12591799 0.14109816 -0.06892553 0.018128201 -0.06141071
-0.032726288 0.040210426 0.016103074 0.06545369 -0.009131268 -0.0569176 -0.09967427 0.030790612
-0.10240075 -0.10563742 -0.091134086 0.03302659 -0.020514555 0.08852108 -0.07820625 -0.11291072
0.129598 -0.055107377 0.13428514 -0.03624732 -0.0048161 0.1276467 0.12749873 0.10541944
-0.04462699 -0.006803587 -0.007208273 0.133639 -0.07872728 -0.02320297 0.09887625 0.08598988
-0.07773371 0.05345048 -0.13032708 0.0075147003 0.029000863 0.12265922 -0.09702089 -0.078735694
-0.004324004 -0.0018048137 0.08537799 -0.0261489 -0.047591582 0.13441126 -0.09809138 -0.12477781
00000000: e8eb f73c c264 813d 8c67 8bbd d484 613d
00000010: c023 9c3d d070 0d3c 0f1e dabd d2df e73d
00000020: d243 b13d 1ce7 95bd 2471 16bd f87c 493d
00000030: 6c3d c1bd a0ec 663d 0c2e bfbd eeb5 f63d
00000040: 4c9e 303d 084b ccbd 5e68 babd 3046 0cbd
00000050: ec09 3abd 2afa a13d dc94 913d a821 c6bd
00000060: 2f18 0d3e 64e3 433d 886b 85bc 166c 09bd
00000070: 3c65 c9bd be15 d13d 4af3 db3d 803c 5a3b
00000080: 84dd 6bbd c716 80bd 6e4e f13d 1477 753d
00000090: fcca 10be 5296 b73d c867 f03c dce1 1d3d
000000a0: 287a fdbd 9a80 5cbd ca6e acbd 72ee f33d
000000b0: 9861 173d 4c9f 9fbd 8c3e cdbd b88e 81bc
000000c0: 7804 a43d c4db f7bc afba 9abd 90e0 1ebc
000000d0: 703c 03bc 040b 0d3d 5e48 de3d 62e2 c83d
000000e0: 4212 cd3d af3c e9bd 82b2 fbbd 562d ce3d
000000f0: a445 ad3d 663b e73d 3e3a 46bd d084 c93d
00000100: faef e33d df0a f8bd f4e8 573d 5007 0abd
00000110: fe7c f5bd da16 df3d d4e6 753d f43b 07bd
00000120: 7c8f a83d 7072 9b3c 4007 1e3c 98c8 dabd
00000130: d68f 0dbe 267e 80bd 14e4 3bbd b0ce 303c
00000140: 129c e2bd d25d ca3d b895 f03c 7e3c ef3d
00000150: 7f07 053e 502f d03d 7259 993d 2896 a9bd
00000160: ec4a de3d 00c7 c23b eee4 803d 45f2 0b3e
00000170: d059 ad3d 2b1d c2bd 3628 e33d 683f a23d
00000180: 3e71 f23d 3520 c4bd 4c7b c63d 52c7 c03d
00000190: 0610 af3d fe90 fa3d 67f3 e6bd 16e2 f83d
000001a0: 01d1 073e a61b 98bd 8b98 073e d4f7 c33d
000001b0: 02c4 fdbd 7a90 4fbd 76b2 9cbd 400d 10be
000001c0: 881a 203d 0a2d 27bd 6e2a cbbd 5417 48bd
000001d0: 551e b1bd e27b f2bd 0033 c13d 0019 c0bb
000001e0: a2b2 7bbd ce22 983d 0237 a13d a863 a33c
000001f0: 9412 3b3d 0d07 05be 80c4 b63b de78 a73d
00000200: 3ac6 cf3d c488 c43d 9c5d 0e3d fa79 f23d
00000210: f417 823d f430 d3bd 2c57 aabd bda0 e9bd
00000220: 57ee 02be 3096 c6bd 1570 85bd 9828 9a3d
00000230: 10c8 56bc 5c2d 6c3d 3824 9dbd 8edb ed3d
00000240: 0fc4 003e c0b6 523d 88e3 f43c fe1b dc3d
00000250: 9689 823d 4471 aabd 80b6 d73c 98e9 3b3d
00000260: 2094 853b 4e35 f63d 306c ef3c 9d42 0b3e
00000270: c5f6 0b3e 0018 213d f0fd 99bd c0d1 623d
00000280: 834f d0bd 875e bdbd d542 013e a042 d8bb
00000290: e438 113d 20ff 2d3c 6ce9 fabd 76de 823d
000002a0: d0b9 3abc 71a7 f9bd 16b6 62bd 80dd 163d
000002b0: 6829 bf3d a023 b53b e8c5 a5bc 604a a7bd
000002c0: 8dc0 91bd e8bd 6e3d 1a45 cbbd beac e73d
000002d0: 851f 053e e40d 483d 5478 e0bd 18b5 c83c
000002e0: 70d1 993d 2f5a ccbd 66b0 b83d 1880 cfbd
000002f0: 826e f03d 0a9c c73d 3e14 f93d e0e4 f63c
00000300: b0f4 fd3c 1e99 963d 5e93 e43d 3c83 c6bd
00000310: ce56 ac3d 4882 9d3d 00e5 01ba 2a46 e03d
00000320: a2a9 ee3d 8165 103e 122d 08be a5f0 003e
00000330: 097c 103e d428 8dbd 9881 943c cc89 7bbd
00000340: 000c 06bd b0b3 243d 98ea 833c 960c 863d
00000350: 509b 15bc 6e22 69bd 0622 ccbd 983c fc3c
00000360: 7cb7 d1bd 6f58 d8bd 82a4 babd e446 073d
00000370: 240e a8bc 8a4a b53d 992a a0bd bc3d e7bd
00000380: 57b5 043e 46b8 61bd 0b82 093e 1278 14bd
00000390: 60d0 9dbb d1b5 023e 078f 023e 26e6 d73d
000003a0: caca 36bd a0f0 debb 6033 ecbb a9d8 083e
000003b0: c53b a1bd 2814 bebc a27f ca3d 761b b03d
000003c0: da32 9fbd e4ee 5a3d 7674 05be e03d f63b
000003d0: 3893 ed3c c234 fb3d e3b2 c6bd 2e40 a1bd
000003e0: 60b0 8dbb 808f ecba a8da ae3d 3836 d6bc
000003f0: 64ef 42bd 1ba3 093e 22e4 c8bd 828b ffbd

bias_ih_l0_reverse f4 [200]
-0.024727322 -0.11971165 0.12268199 0.10771209 0.10519749 -0.028528363 0.037854895 -0.08456747
0.025201693 -0.060407296 0.00082184374 0.06829806 0.13689466 0.044999912 -0.128034 -0.058507062
-0.06064091 0.05073227 -0.073788784 -0.08018897 -0.05455544 -0.03993839 0.09817512 -0.011641324
0.09372333 -0.12823538 0.004838899 0.021383867 0.07396874 -0.09666103 0.07502395 0.1244217
0.05969058 -0.10263967 0.041608065 -0.031224564 0.027633384 -0.045985572 0.07242386 -0.072751395
0.098949105 0.13125293 -0.08484593 -0.04311835 0.14083894 0.014270708 -0.06990797 0.11746962
0.0701963 0.10522936 0.13286532 -0.10075866 -0.090167455 0.0008915514 -0.08630404 -0.01922299
-0.11424278 0.0156048685 -0.11258666 -0.09764156 -0.059939735 0.012042835 0.123271 0.05035451
-0.06122257 -0.014950067 -0.14120376 -0.010029823 0.13570939 0.101053536 0.041099906 0.052002028
0.055720568 0.08334802 0.13966058 0.057744846 0.07144602 -0.061896898 -0.08697468 0.1363189
-0.004107937 -0.1353942 -0.13699846 0.11439134 -0.043503724 0.087231174 -0.13619412 -0.047517233
-0.06328144 0.1382526 -0.059693158 -0.10665412 0.053450048 -0.033290766 0.016174138 0.032017767
-0.083106935 -0.052310415 -0.112047166 -0.018074594 -0.13087794 -0.016465865 0.13041423 -0.1065879
0.03941518 -0.09462541 -0.08877015 -0.11957116 -0.105571166 0.001586616 -0.008663848 0.00015564263
0.0896174 0.03456168 -0.091443814 -0.014899209 -0.010082096 0.066191524 0.0382919 0.11540668
-0.06276042 0.14138354 -0.13321994 -0.12051312 0.091030836 0.10921864 0.03722392 0.012965575
-0.09382424 0.13722195 -0.1410047 -0.07107137 0.00906314 -0.099182814 0.10647161 -0.12443122
0.044393227 0.097853586 0.02214384 -0.011234567 0.07826176 -0.09470694 -0.117365725 -0.12585048
-0.11776678 -0.04103326 0.070182696 -0.12355816 0.13035972 0.07374312 -0.00570406 -0.05283121
-0.013777226 0.0029787421 0.025805086 -0.005157858 0.13501821 0.040944144 -0.096414395 0.07793093
-0.14124237 0.004818842 -0.051822588 -0.070422344 0.012173623 0.10034466 -0.05733197 0.012026086
0.1165375 0.028882086 0.029334813 0.084206596 0.021944493 -0.12821183 0.002946198 0.1245573
-0.09523769 -0.022643983 -0.13374498 -0.1332221 -0.14135036 -0.07307391 0.022947311 -0.022989862
-0.1199566 -0.018836476 0.033538774 0.022502884 0.058168456 0.115399554 0.12649919 -0.017672695
0.057657868 -0.007915765 0.07380301 -0.1178484 -0.02453196 -0.012211189 -0.012690529 -0.09901647
00000000: f490 cabc 622b f5bd b240 fb3d 2898 dc3d
00000010: c871 d73d 50b4 e9bc bc0d 1b3d b631 adbd
00000020: c873 ce3c a46d 77bd 0071 573a dadf 8b3d
00000030: 1d2e 0c3e d451 383d 581b 03be 1aa5 6fbd
00000040: 9a62 78bd a4cc 4f3d 931e 97bd 1d3a a4bd
00000050: 8675 5fbd 7096 23bd 0a10 c93d 40bb 3ebc
00000060: 04f2 bf3d 2350 03be a08f 9e3b 382d af3c
00000070: ec7c 973d 38f6 c5bd 28a6 993d ced0 fe3d
00000080: 1c7e 743d bf34 d2bd 386d 2a3d a8ca ffbc
00000090: 685f e23c 5e5b 3cbd f652 943d affe 94bd
000000a0: d4a5 ca3d 2b67 063e b4c3 adbd de9c 30bd
000000b0: 1538 103e b0cf 693c e92b 8fbd ea93 f03d
000000c0: 14c3 8f3d 7e82 d73d d90d 083e 8e5a cebd
000000d0: b7a9 b8bd 00b7 693a 2cc0 b0bd 8879 9dbc
000000e0: 1ef8 e9bd 90ab 7f3c d693 e6bd 4cf8 c7bd
000000f0: 5e83 75bd 504f 453c 8275 fc3d 8840 4e3d
00000100: 84c4 7abd 20f1 74bc b897 10be 2054 24bc
00000110: 67f7 0a3e 28f5 ce3d 6058 283d 1400 553d
00000120: 403b 643d 5eb2 aa3d 2f03 0f3e dc85 6c3d
00000130: 4a52 923d 9a87 7dbd c81f b2bd 2f97 0b3e
00000140: e09b 86bb c7a4 0abe 5349 0cbe 0246 ea3d
00000150: f630 32bd 42a6 b23d 7976 0bbe 6ea1 42bd
00000160: b399 81bd 1792 0d3e d080 74bd 7a6d dabd
00000170: 70ee 5a3d e65b 08bd a07f 843c 1025 033d
00000180: f833 aabd 7243 56bd fc78 e5bd 2c11 94bc
00000190: de04 06be 6ce3 86bc 4f8b 053e c24a dabd
000001a0: d071 213d f8ca c1bd 20cd b5bd b9e1 f4bd
000001b0: b235 d8bd 00f6 cf3a d0f2 0dbc 0034 2339
000001c0: 5489 b73d 8c90 0d3d e546 bbbd d01b 74bc
000001d0: 602f 25bc 6c8f 873d f8d7 1c3d 565a ec3d
000001e0: 8988 80bd d9c6 103e cf6a 08be 95cf f6bd
000001f0: 606e ba3d 06ae df3d 1c78 183d 906d 543c
00000200: ec26 c0bd e983 0c3e 8963 10be de8d 91bd
00000210: 907d 143c 5c20 cbbd ca0d da3d ccd5 febd
00000220: acd5 353d 7667 c83d 0067 b53c 3011 38bc
00000230: b447 a03d b6f5 c1bd 715d f0bd f3de 00be
00000240: b62f f1bd 7e12 28bd f2bb 8f3d 100c fdbd
00000250: 057d 053e a206 973d 20e9 babb 8a65 58bd
00000260: e0b9 61bc 0037 433b 3065 d33c 4003 a9bb
00000270: 3742 0a3e 0cb5 273d e974 c5bd 409a 9f3d
00000280: d7a1 10be 60e7 9d3b ec43 54bd 9739 90bd
00000290: e073 473c 8081 cd3d eed4 6abd 1009 453c
000002a0: 36ab ee3d 209a ec3c 904f f03c 8274 ac3d
000002b0: f0c4 b33c f649 03be 0015 413b e617 ff3d
000002c0: fa0b c3bd e07f b9bc 72f4 08be 606b 08be
000002d0: 26be 10be c6a7 95bd 00fc bb3c 3c55 bcbc
000002e0: ceab f5bd f44e 9abc f45f 093d f857 b83c
000002f0: 0c42 6e3d 9a56 ec3d 0189 013e 54c6 90bc
00000300: a82a 6c3d 20b1 01bc 0826 973d 805a f1bd
00000310: 40f7 c8bc 7011 48bc f0eb 4fbc 26c9 cabd

bias_hh_l0_reverse f4 [200]
0.11707269 0.011664212 -0.104159266 -0.033485115 -0.06569947 0.13941781 -0.015737519 -0.10414035
-0.06751597 -0.12806699 0.009678304 0.09398785 0.04436706 -0.12152908 0.08305934 0.07124208
0.0622869 -0.01697281 -0.12636387 0.029995084 0.10245097 0.0636137 -0.11643725 0.06372543
-0.11076437 0.028773665 0.049726278 -0.07448342 -0.11915807 -0.0415468 -0.07437066 -0.041117206
0.08770965 0.051792443 0.028096974 0.06432547 0.053815976 0.050311282 -0.04085739 -0.032406762
0.061694458 -0.13354065 0.015571952 0.06156376 -0.046173878 0.030209646 -0.038114287 -0.08420651
0.08852291 0.016859993 -0.078807145 -0.13965575 0.024627209 -0.025016092 -0.0001077652 -0.019378059
0.07127318 0.045159087 -0.08170687 0.1072354 -0.11687433 -0.13780038 0.090841785 0.02288422
-0.042779326 0.07850231 -0.08484766 -0.046272554 -0.016067863 0.058029264 0.091814294 -0.030622385
-0.08830999 -0.12343826 0.025277257 -0.020746402 -0.03984403 0.115373924 0.08275288 0.035892814
-0.0030155182 -0.047016464 0.08475797 -0.11198059 -0.11688772 0.026413977 -0.09815426 0.010506809
0.02501069 -0.069846265 0.08994262 0.12364246 -0.09143021 0.089565665 -0.025179908 -0.112591416
0.07032144 -0.07932663 0.035761386 -0.12155968 0.0740834 -0.12167688 0.006489828 0.12863187
0.05732134 0.09976776 0.056234628 0.05382277 0.026151612 -0.071581 0.13482432 -0.0354762
0.018358022 0.059826568 0.04484217 0.12379862 -0.10820799 0.14084442 -0.113414176 0.08480808
0.035713524 -0.015893742 -0.018391468 0.13607074 -0.13742985 -0.116859525 0.015151709 0.043249667
-0.035890147 0.108100355 0.118681595 -0.1132514 0.13138051 0.10746102 0.03871344 -0.13118194
0.06448048 -0.097459145 0.13313006 0.132228 0.052334785 -0.09851454 -0.05469326 0.08177006
-0.06659794 0.008348048 0.02244468 0.061537683 -0.086264536 -0.058311686 0.012970984 0.009819627
-0.11086776 0.030262887 0.07745129 0.11012076 -0.0579032 0.052158132 -0.07215888 0.06331666
-0.0028118044 -0.12767985 -0.05383552 0.11746569 -0.037404925 -0.040985286 0.06538491 -0.04040563
0.077561095 0.13024984 -0.055506356 0.047462955 0.034067243 -0.12081671 -0.14068203 0.011591971
-0.08608052 -0.09969574 -0.12416678 -0.017360374 0.08264369 0.082708776 -0.06998754 -0.11478064
-0.115830116 0.08710939 0.060631648 0.11901285 -0.08835067 0.12757532 0.13851471 -0.0043374
-0.0003324002 -0.0985931 0.12657447 0.108359516 -0.017602332 -0.036226958 0.098976344 0.021497369
00000000: cec3 ef3d 401b 3f3c 7451 d5bd b027 09bd
00000010: 728d 86bd 8bc3 0e3e f8eb 80bc 8947 d5bd
00000020: d045 8abd fe23 03be c091 1e3c b47c c03d
00000030: 3cba 353d 3de4 f8bd 041b aa3d 5ee7 913d
00000040: 8c20 7f3d 900a 8bbc 8865 01be 40b8 f53c
00000050: d0d1 d13d e647 823d a776 eebd 7a82 823d
00000060: 6ed8 e2bd c0b6 eb3c c8ad 4b3d c38a 98bd
00000070: 2509 f4bd fa2c 2abd a54f 98bd 846a 28bd
00000080: 1ea1 b33d 5024 543d a02b e63c 12bd 833d
00000090: 246e 5c3d 3413 4e3d 145a 27bd f4bc 04bd
000000a0: 54b3 7c3d e1be 08be 8021 7f3c 482a 7c3d
000000b0: d220 3dbd 387a f73c ba1d 1cbd 7674 acbd
000000c0: 804b b53d f81d 8a3c a465 a1bd eb01 0fbe
000000d0: 00bf c93c 8cee ccbc 0000 e2b8 bcbe 9ebc
000000e0: acf7 913d bcf8 383d ee55 a7bd 3c9e db3d
000000f0: cf5b efbd 8b1b 0dbe 420b ba3d b077 bb3c
00000100: 6039 2fbd d2c5 a03d 9cc4 adbd 4a88 3dbd
00000110: c0a0 83bc 18b0 6d3d 2209 bc3d ccdb fabc
00000120: dedb b4bd 33cd fcbd 4012 cf3c 5cf4 a9bc
00000130: 7e33 23bd 2a49 ec3d 587a a93d 5804 133d
00000140: 00a0 45bb 5694 40bd 9695 ad3d 1456 e5bd
00000150: d462 efbd 2062 d83c 1a05 c9bd c024 2c3c
00000160: 38e3 cc3c 8f0b 8fbd d633 b83d 4238 fd3d
00000170: c33f bbbd 346e b73d 1846 cebc 5496 e6bd
00000180: b004 903d 0076 a2bd 887a 123d 48f4 f8bd
00000190: 0ab9 973d ba31 f9bd a0a8 d43b 13b8 033e
000001a0: c8c9 6a3d 0a53 cc3d 4856 663d 4475 5c3d
000001b0: e83b d63c 0f99 92bd 630f 0a3e 7e4f 11bd
000001c0: 9063 963c b40c 753d 6cac 373d 228a fd3d
000001d0: 279c ddbd 8539 103e b145 e8bd dcaf ad3d
000001e0: 5848 123d 9833 82bc b4a9 96bc 2156 0b3e
000001f0: 69ba 0cbe 0c54 efbd e03e 783c 9026 313d
00000200: 8c01 13bd b863 dd3d 560f f33d 5af0 e7bd
00000210: 9d88 063e 8614 dc3d fc91 1e3d 8f54 06be
00000220: 580e 843d a998 c7bd 3f53 083e c766 073e
00000230: 005d 563d fec1 c9bd 0a06 60bd 1077 a73d
00000240: 8064 88bd 40c6 083c e8dd b73c f00e 7c3d
00000250: 76ab b0bd 3cd8 6ebd 4084 543c 80e2 203c
00000260: a30e e3bd e0e9 f73c c89e 9e3d fe86 e13d
00000270: e82b 6dbd c4a3 553d 09c8 93bd 2aac 813d
00000280: 4046 38bb 82be 02be a282 5cbd da91 f03d
00000290: e835 19bd 30e0 27bd 86e8 853d 6080 25bd
000002a0: 5ad8 9e3d 3760 053e a25a 63bd 8468 423d
000002b0: 188a 0b3d c06e f7bd f30e 10be 40ec 3d3c
000002c0: fc4a b0bd 482d ccbd 274b febd 5837 8ebc
000002d0: 1841 a93d 3863 a93d a155 8fbd 1d12 ebbd
000002e0: 5738 edbd 6866 b23d e458 783d 02bd f33d
000002f0: 32f1 b4bd 1ba3 023e cdd6 0d3e c020 8ebb
00000300: 0046 aeb9 2eeb c9bd bd9c 013e 98eb dd3d
00000310: c432 90bc b862 14bd 1cb4 ca3d 401b b03c

weight_ih_l0 f4 [200, 100]
-0.9995518 0.7963782 0.38084534 -0.6533067 0.55902445 0.92401713 0.05232632 -0.34681287
-0.33111694 -0.4615139 0.5297142 -0.9923341 0.9020461 1.0995604 -1.0943561 0.23644795
-0.83385366 0.914953 -0.6489824 -0.60359645 -0.39898285 -1.9028912 1.404349 0.28974882
1.677001 0.31958172 -0.13489649 0.07687892 -0.33684692 0.052675404 0.19350241 -0.4109715
0.09005059 0.09391284 0.045695268 0.13355714 -2.1103818 -0.0824943 -1.0822248 -0.68265873
0.72864014 -0.5184908 -0.9702087 1.3666425 -0.489206 -0.6158159 0.24945888 0.12562078
0.029471477 0.23107821 0.038514335 2.5285068 -0.48769566 0.592438 0.33941045 0.646949
-1.0875334 0.25482786 -0.5753261 0.09045215 1.5653061 -0.35573685 0.32793027 -0.45923296
-0.32367188 -0.23850955 -0.57307947 -1.2843119 0.024915945 -0.26514745 0.28094336 1.8862697
0.82197684 0.6522126 -0.10578014 -1.4541303 0.31842726 -0.9400269 1.0152903 0.052734382
0.4976788 1.0588037 0.65584344 -0.4940201 -0.6057804 0.57137114 -1.827441 -0.14428289
0.70768535 0.27835682 1.0764858 0.21189618 -0.012846105 0.04069455 0.9566506 0.60055953
-0.3412135 0.8607977 -0.76117295 -0.31502795 -0.07225595 0.62399065 -0.4152704 0.16661423
0.41452315 -0.14872696 -0.10706259 -0.108527154 0.3468195 0.38838077 -0.36473104 0.09616065
-0.35805914 0.7535845 0.85285413 0.34161684 -0.23595908 0.24548925 -0.26397726 0.20096436
0.18378869 -0.23474449 -0.32738155 -0.21430893 0.11596915 -0.33007962 0.31301478 -0.31347835
0.06314872 0.39094764 0.2216758 -0.6181516 -0.21280938 -0.42395112 -0.16051671 0.28545383
0.56915015 -0.61823434 0.33324102 0.21492894 0.008641751 0.4108729 -0.33645877 0.24506758
-0.29685614 -0.585104 -0.09193646 0.47499463 -0.08734267 0.3195887 -0.1548356 0.55823535
-0.57031506 0.11176729 -0.35430518 -0.37386373 0.10176578 -0.5213599 -0.59925556 -0.10595911
-0.24245688 0.44837528 0.41275203 0.48192313 -0.040008117 0.24708359 0.29138336 -0.20655099
0.22168264 -0.260151 0.11808644 0.12869102 0.060193688 -0.07447222 -0.24388422 -0.50365704
0.57344943 0.30145913 0.19999437 -0.77241033 -0.06545437 0.6088678 -0.038872156 -0.499807
0.063583136 -0.14685793 0.4232686 0.2779976 -0.3558518 -0.41230172 0.5597668 0.1641069
0.24240145 -0.4781029 -0.29559255 -0.38725945 -0.4206676 -0.15801765 0.20000553 -0.095698506
0.6726452 1.2494514 -0.22327077 0.5916159 0.2847494 0.05605878 -0.112905234 0.49724776
0.3385943 -0.079729885 0.94537985 -0.6454133 -0.2870882 -0.06613342 -0.1576206 0.018514013
-0.45182216 0.5957856 -0.13479182 -0.21228725 -0.5104087 -0.11182325 -0.3623002 -0.34196886
-0.71351635 0.42655578 -0.2136786 -0.06749523 -0.058533885 0.2500608 0.4141486 0.7948003
-0.48031294 -0.3474586 -0.077167004 0.41810453 0.6498493 -0.2550305 2.2839088 -0.064384826
-0.10727885 -0.028079037 -0.6102373 0.63191104 -0.46825954 -0.089344285 0.82359296 -0.6984773
-0.4202526 0.6531085 -0.2594977 0.06569818 0.9508085 -0.22623983 0.18411337 -1.2365756
00000000: a0e2 7fbf 71df 4b3f 29fe c23e 1c3f 27bf
00000010: 3a1c 0f3f 638c 6c3f 2054 563d 7591 b1be
00000020: 2988 a9be 8d4b ecbe 5a9b 073f 9c09 7ebf
00000030: 7eec 663f 65be 8c3f dc13 8cbf 691f 723e
00000040: 6f77 55bf 5c3a 6a3f b623 26bf 4c85 1abf
00000050: 7b47 ccbe f091 f3bf b5c1 b33f f559 943e
00000060: f8a7 d63f 37a0 a33e 4e22 0abe b272 9d3d
00000070: 3377 acbe 2ac2 573d 7f25 463e db6a d2be
00000080: 726c b83d 6055 c03d f62a 3b3d 34c3 083e
00000090: 7f10 07c0 c6f2 a8bd 5886 8abf b9c2 2ebf
000000a0: 2988 3a3f d0bb 04bf 995f 78bf 24ee ae3f
000000b0: 3579 fabe 1ca6 1dbf 2672 7f3e bca2 003e
000000c0: 2b6e f13c c49f 6c3e 35c1 1d3d 0ed3 2140
000000d0: 3fb3 f9be 04aa 173f 35c7 ad3e 739e 253f
000000e0: 4b34 8bbf cc78 823e 9248 13bf fa3e b93d
000000f0: f35b c83f 2423 b6be 7ae6 a73e 9520 ebbe
00000100: 52b8 a5be d93b 74be 56b5 12bf 5564 a4bf
00000110: 861c cc3c 68c1 87be cfd7 8f3e 4971 f13f
00000120: 136d 523f 68f7 263f 42a3 d8bd f120 babf
00000130: e608 a33e 9aa5 70bf 08f5 813f 0200 583d
00000140: c1cf fe3e e186 873f 5be5 273f 34f0 fcbe
00000150: 6d14 1bbf 6145 123f 96e9 e9bf e5be 13be
00000160: de2a 353f c984 8e3e 49ca 893f 50fb 583e
00000170: 7878 52bc 54af 263d 0ee7 743f 45be 193f
00000180: 89b3 aebe 3d5d 5c3f 3bdc 42bf 584b a1be
00000190: edfa 93bd dabd 1f3f 529e d4be ec9c 2a3e
000001a0: 613c d43e e14b 18be a243 dbbd 7c43 debd
000001b0: 5392 b13e d8d9 c63e 07be babe e0ef c43d
000001c0: 8753 b7be eaea 403f a654 5a3f 67e8 ae3e
000001d0: 429f 71be 8961 7b3e 0728 87be 9ac9 4d3e
000001e0: 1a33 3c3e dc60 70be 8e9e a7be cd73 5bbe
000001f0: 3c81 ed3d 3200 a9be 7943 a03e 3c80 a0be
00000200: 1e54 813d 4a2a c83e fbfe 623e 2f3f 1ebf
00000210: b4ea 59be 1f10 d9be 7e5e 24be 0127 923e
00000220: d3b3 113f 9b44 1ebf 919e aa3e 5516 5c3e
00000230: 2196 0d3c ef5d d23e 5344 acbe fff2 7a3e
00000240: 87fd 97be 60c9 15bf 2f49 bcbd 7f32 f33e
00000250: b7e0 b2bd 21a1 a33e 398d 1ebe 83e8 0e3f
00000260: 2b00 12bf 40e6 e43d 7d67 b5be 116b bfbe
00000270: 946a d03d d877 05bf d068 19bf 1701 d9bd
00000280: 9e46 78be 7291 e53e 3c54 d33e a1be f63e
00000290: 8ddf 23bd 7b03 7d3e 3330 953e 1a82 53be
000002a0: c600 633e 8332 85be 4ed7 f13d 94c7 033e
000002b0: a88d 763d e484 98bd c9bc 79be abef 00bf
000002c0: 95cd 123f da58 9a3e 53cb 4c3e afbc 45bf
000002d0: f10c 86bd c3de 1b3f 6938 1fbd b4e6 ffbe
000002e0: e037 823d ed61 16be a9b6 d83e b455 8e3e
000002f0: 3532 b6be 3619 d3be e14c 0f3f a40b 283e
00000300: 1638 783e e7c9 f4be e857 97be df46 c6be
00000310: be61 d7be 61cf 21be 40ce 4c3e 94fd c3bd
00000320: 7a32 2c3f 06ee 9f3f 18a1 64be 2474 173f
00000330: acca 913e e49d 653d dc3a e7bd 4297 fe3e
00000340: 3b5c ad3e 6c49 a3bd 6a04 723f ce39 25bf
00000350: 39fd 92be f570 87bd 4b67 21be b3aa 973c
00000360: 3c55 e7be 6885 183f de06 0abe d461 59be
00000370: 25aa 02bf 9703 e5bd 697f b9be 8b16 afbe
00000380: 02a9 36bf 8565 da3e 90ce 5abe f03a 8abd
00000390: 3ac1 6fbd f807 803e 490b d43e 0878 4b3f
000003a0: 94eb f5be 18e6 b1be bc09 9ebd cc11 d63e
000003b0: 865c 263f 5c93 82be 902b 1240 31dc 83bd
000003c0: 04b5 dbbd 0206 e6bc 8338 1cbf ecc4 213f
000003d0: b7bf efbe 23fa b6bd fdd6 523f 69cf 32bf
000003e0: 592b d7be 1e32 273f e2dc 84be c48c 863d
000003f0: 3068 733f 6aab 67be 3788 3c3e 1c48 9ebf

weight_hh_l0 f4 [200, 50]
0.3262701 0.40952438 -0.5205631 0.20472151 1.4165077 0.43941662 -0.6183437 0.7090521
0.568752 0.53360456 -0.31816947 0.5450904 -1.5680274 0.44921732 -0.18085364 0.8275043
0.027120553 -0.26127163 -0.84416026 0.11712639 0.517605 0.31487843 -0.5251943 -0.17916752
0.052936774 -0.36451697 -1.0142488 0.37959093 0.25367662 -0.057936523 -0.5418701 0.4432308
0.5146625 0.032428898 1.0033635 0.23636696 0.07233021 0.31393075 0.04202519 -0.059449363
-0.22966291 0.3517576 -0.21117452 -0.31559053 -0.26946735 -0.42693442 -0.043033153 0.3555415
0.7306808 -0.2657752 -0.65789014 0.2517886 -0.20501553 0.9002717 0.85249573 -0.0018213918
-0.22390977 0.95423466 -0.6649567 0.97048163 -0.14671506 0.8339478 -0.9872615 0.86549157
-0.15425885 0.041988403 0.6603976 -0.033968862 0.26005605 -0.15672348 -0.3062421 1.5505629
0.036622763 -0.44441178 0.58262134 0.4766384 0.6175562 -0.32963035 0.04387116 0.36883664
0.8411202 -1.7390419 0.119393356 -0.20325704 -0.18821736 -0.17909166 0.24531451 0.022129616
-1.6975396 0.7925387 -1.6879745 -0.33166716 0.025114717 -1.3329728 -0.9999652 -1.0539079
-0.5703744 0.37363487 1.1544647 0.2817032 0.5302385 0.036664143 -0.866728 0.44810855
-0.31714603 0.091403626 0.17990558 0.69317865 0.49502277 0.13430272 -1.2223573 0.8170197
0.36397448 0.24578771 0.27296376 -0.19066595 0.24251491 0.013537041 -1.2358309 -0.094845705
-0.23370244 0.23264846 -0.09986326 0.28563213 -0.8046222 0.14748132 -0.87251514 -0.43922794
0.19983916 -0.18951853 -0.02192759 0.3062203 -0.38869813 0.095502414 -0.37472492 0.31656066
-0.0055448962 -1.7292106 -0.9159763 0.2233649 0.016576616 0.8942446 -1.6350393 0.46748456
-0.79500574 0.27477372 0.46898326 0.8819606 1.7232323 0.9338468 1.4801967 1.3241823
-0.9509977 -0.3405033 0.059219178 0.69682366 -0.6188565 -0.7781595 -1.0696039 0.8911585
0.65553033 0.20080209 1.2584972 0.3879103 -0.84867984 -0.041043337 0.4089145 0.8381568
0.81248736 -0.7167009 -0.7267758 0.17731953 0.5557743 -0.02383159 -0.25862625 -0.081774265
1.1608742 0.9810055 0.40923887 0.084375575 0.17531247 0.20031577 1.0430213 -0.1721241
0.8643824 0.121684894 1.4884156 1.041891 -0.112530984 0.22360265 -0.89163876 -1.0563014
1.0639931 1.0540594 -0.092418194 0.27190676 -0.02846855 -1.0827516 -1.3339019 0.84301263
-0.2557932 0.31180406 -0.077847764 -2.1156502 -0.07262554 0.116344005 -0.17146184 1.4995852
0.6010065 0.27486682 -2.043484 -0.33101818 -0.5141295 0.0011537175 -0.117226206 -0.33862323
1.1467409 -0.9699967 0.09585706 0.20054969 -0.1361055 0.36227372 0.23652707 0.1933019
-0.6143837 -0.16226724 -1.2615302 0.31323034 0.24110311 0.1483779 0.07436289 0.048255526
-0.2785682 -0.37834185 -0.74950385 -0.04598086 -0.9252868 -0.6299335 -0.098508745 -0.058534678
0.5243353 0.8368608 -1.3033428 0.72334886 0.054778017 0.68312037 1.3095756 -0.5092098
-0.1352424 0.72073305 0.34829417 -0.024907632 0.16688387 -1.2150959 0.0677214 0.06276069
00000000: e00c a73e 2ead d13e a043 05bf 84a2 513e
00000010: 2050 b53f 37fb e03e c64b 1ebf 7084 353f
00000020: bb99 113f 4f9a 083f 1ce7 a2be 0b8b 0b3f
00000030: 1fb5 c8bf d0ff e53e b231 39be 52d7 533f
00000040: ec2b de3c 65c5 85be e31a 58bf f6df ef3d
00000050: c381 043f bf37 a13e 2273 06bf b177 37be
00000060: 3bd4 583d f8a1 babe e8d2 81bf be59 c23e
00000070: e7e1 813e d94e 6dbd 00b8 0abf 26ef e23e
00000080: ecc0 033f 2ad4 043d 376e 803f 2e0a 723e
00000090: dc21 943d 88bb a03e 9b22 2c3d 2d81 73bd
000000a0: c12c 6bbe 9219 b43e 223e 58be 1595 a1be
000000b0: a0f7 89be 2697 dabe 8843 30bd 8909 b63e
000000c0: e60d 3b3f b013 88be 7d6b 28bf 6fea 803e
000000d0: 97ef 51be 3578 663f 293d 5a3f c4bb eeba
000000e0: 9a48 65be b948 743f 9a3a 2abf 7c71 783f
000000f0: 793c 16be 9a7d 553f 2bbd 7cbf db90 5d3f
00000100: 08f6 1dbe 08fc 2b3d d10f 293f ef22 0bbd
00000110: 1126 853e 1f7c 20be c4cb 9cbe d878 c63f
00000120: c001 163d f189 e3be ac26 153f f309 f43e
00000130: 2a18 1e3f 4fc5 a8be 3fb2 333d 28d8 bc3e
00000140: a753 573f ed98 debf 8184 f43d 9d22 50be
00000150: 0dbc 40be ce63 37be ba33 7b3e 2b49 b53c
00000160: fa48 d9bf d1e3 4a3f 8c0f d8bf 47d0 a9be
00000170: 61bd cd3c da9e aabf b8fd 7fbf 74e6 86bf
00000180: 0f04 12bf 124d bf3e 80c5 933f 673b 903e
00000190: b6bd 073f 242d 163d e3e1 5dbf 7c6e e53e
000001a0: f760 a2be d331 bb3d 2b39 383e 2874 313f
000001b0: a073 fd3e a786 093e 3476 9cbf 3428 513f
000001c0: dd5a ba3e c6af 7b3e e8c1 8b3e ef3d 43be
000001d0: d455 783e 77ca 5d3c b52f 9ebf 773e c2bd
000001e0: b14f 6fbe 663b 6e3e 1c85 ccbd 603e 923e
000001f0: b8fb 4dbf 5805 173e 275d 5fbf 7ce2 e0be
00000200: a3a2 4c3e 2511 42be 7da1 b3bc e8c8 9c3e
00000210: 7103 c7be c596 c33d f2db bfbe 3d14 a23e
00000220: f6b1 b5bb c656 ddbf 6c7d 6abf c5b9 643e
00000230: afcb 873c 37ed 643f f848 d1bf 235a ef3e
00000240: 7f85 4bbf 24af 8c3e 931e f03e 2bc8 613f
00000250: e092 dc3f 9510 6f3f 1677 bd3f ce7e a93f
00000260: 9674 73bf 7356 aebe cf8f 723d 0963 323f
00000270: 616d 1ebf 7635 47bf c8e8 88bf f722 643f
00000280: d6d0 273f 109f 4d3e 7016 a13f 2e9c c63e
00000290: 1543 59bf 0f1d 28bd 3e5d d13e 7291 563f
000002a0: 2cff 4f3f b679 37bf fb0d 3abf 4093 353e
000002b0: 3947 0e3f 773a c3bc a96a 84be 4479 a7bd
000002c0: 8797 943f 2d23 7b3f c287 d13e 1acd ac3d
000002d0: 1d85 333e 941f 4d3e b981 853f 4d41 30be
000002e0: 2a48 5d3f ee35 f93d 6784 be3f af5c 853f
000002f0: a576 e6bd 18f8 643e 7042 64bf e234 87bf
00000300: ed30 883f 6beb 863f c045 bdbd 5d37 8b3e
00000310: e036 e9bc 9b97 8abf 4cbd aabf adcf 573f
00000320: 54f7 82be c8a4 9f3e a66e 9fbd d066 07c0
00000330: b3bc 94bd c445 ee3d b193 2fbe 68f2 bf3f
00000340: 90db 193f 58bb 8c3e 71c8 02c0 377b a9be
00000350: fe9d 03bf 5638 973a 4b14 f0bd 0660 adbe
00000360: 68c8 923f b451 78bf b550 c43d e65c 4d3e
00000370: 3d5f 0bbe f17b b93e 2734 723e eff0 453e
00000380: 4048 1dbf 6229 26be d279 a1bf ba5f a03e
00000390: bce3 763e 60f0 173e 924b 983d 96a7 453d
000003a0: 7ea0 8ebe 06b6 c1be 7cdf 3fbf 6d56 3cbd
000003b0: 99df 6cbf 5243 21bf f4be c9bd 0fc2 6fbd
000003c0: d73a 063f 823c 563f f0d3 a6bf 642d 393f
000003d0: ea5e 603d fae0 2e3f 2ca0 a73f 935b 02bf
000003e0: fc7c 0abe f681 383f 9d53 b23e 170b ccbc
000003f0: 9be3 2a3e 4388 9bbf 84b1 8a3d ad88 803d

bias_ih_l0 f4 [200]
-0.12171796 0.50029385 -0.13034497 -0.26076382 0.02827748 0.03234228 0.0034635426 -0.10634831
-0.0027695997 -0.21981902 0.2906525 0.13883671 -0.30695277 0.0947745 0.14199977 0.004855595
-0.095614836 0.21196122 0.078307346 -0.13386153 0.19190493 0.18718256 -0.17297946 -0.01966291
0.14229614 0.13278332 0.097062595 0.12744735 0.15772562 0.09815866 0.009429588 -0.1577737
0.024947686 -0.053505797 -0.04410519 -0.12388176 0.008320774 -0.0979892 -0.051311612 0.12325728
0.005630945 -0.08188511 -0.17699379 -0.027914297 0.20079835 0.07664677 -0.21551305 -0.053685762
-0.2649998 0.31611192 0.06046278 0.17218326 0.25036764 -0.0033168115 0.1981308 0.04103867
0.013491105 -0.24548483 -0.24296743 -0.2567146 -0.2281635 0.016806941 -0.21886538 -0.13901265
0.029708972 -0.12190237 -0.5128029 -0.43970907 -0.49461815 -0.11536984 -0.26520973 0.03630649
0.026908146 -0.05288255 -0.090522006 0.044184413 0.25288135 0.12319236 0.11677273 0.15335286
0.12001717 -0.17235476 -0.3030509 0.15079685 -0.46584988 -0.05151067 -0.010083988 -0.21209227
-0.1460113 -0.36329597 -0.1162127 -0.2443274 -0.5713262 -0.160617 0.018540876 -0.3638942
0.19312797 -0.1893095 0.043589436 -0.38380855 -0.04935365 -0.24789023 0.010131048 0.059278835
-0.09895848 -0.10397864 0.121088006 -0.18846332 -0.0082947705 0.21994379 0.12725635 -0.11414366
0.11850505 -0.011345472 -0.05102191 0.11662817 0.22324732 -0.0066157416 -0.12409623 0.04377993
-0.1938869 0.2551815 0.0013230694 0.4984715 -0.020582775 0.16073643 0.18034726 -0.4897495
-0.052285627 -0.030139515 0.17759416 -0.1773205 -0.010437077 -0.032166693 0.005597363 -0.027635181
0.2748174 -0.11193421 0.052369665 0.10368948 0.024320401 0.2573669 0.2053664 0.050908674
0.08828481 0.029834243 -0.042474627 0.13572259 0.1066548 -0.08979761 0.10356198 -0.11575508
-0.025312327 -0.091461435 0.008652968 -0.06316983 -0.188323 -0.22047736 -0.22057723 -0.09201294
-0.02793823 0.017093593 -0.18210584 -0.057584386 0.057208195 -0.0042804307 -0.017674712 0.004602856
0.07780837 -0.05807414 -0.06562208 -0.056142468 -0.029210553 0.004070167 0.23127976 0.12358937
0.1493969 -0.07914756 0.012019301 -0.008512944 -0.16692267 -0.061120693 0.15251134 0.023154603
-0.1697839 -0.22196715 0.08426003 -0.121750504 -0.075860664 -0.012755783 0.27122518 0.012166783
-0.10341223 -0.18163405 0.19269991 -0.06291107 0.13696995 -0.13662682 -0.11175858 0.029969186
00000000: 4447 f9bd 4213 003f 2779 05be d682 85be
00000010: 2ca6 e73c 5779 043d 9afc 623b 25cd d9bd
00000020: 2c82 35bb 3d18 61be 68d0 943e 362b 0e3e
00000030: ea28 9dbe 2219 c23d 6368 113e af1b 9f3b
00000040: b6d1 c3bd 5d0c 593e 9a5f a03d ff12 09be
00000050: ba82 443e c9ac 3f3e 8721 31be 1c14 a1bc
00000060: 14b6 113e 5af8 073e c1c8 c63d 8f81 023e
00000070: d382 213e 6807 c93d 8f7e 1a3c 6e8f 21be
00000080: 175f cc3c e528 5bbd a5a7 34bd b8b5 fdbd
00000090: db53 083c 90ae c8bd 202c 52bd 506e fc3d
000000a0: ca83 b83b 61b3 a7bd dc3d 35be 86ac e4bc
000000b0: 159e 4d3e fbf8 9c3d 74af 5cbe 9ae5 5bbd
000000c0: 0eae 87be 6cd9 a13e d2a7 773d cf50 303e
000000d0: 3030 803e dd5e 59bb cde2 4a3e 2a18 283d
000000e0: cc09 5d3c 6060 7bbe 74cc 78be 1970 83be
000000f0: b1a3 69be b6ae 893c 3f1e 60be 5559 0ebe
00000100: 3b60 f33c f3a7 f9bd 0d47 03bf 8c21 e1be
00000110: 973e fdbe 0647 ecbd 92c9 87be 1db6 143d
00000120: 796e dc3c 5f9b 58bd 9a63 b9bd b7fa 343d
00000130: aa79 813e 474c fc3d 8b26 ef3d 8808 1d3e
00000140: 90cb f53d c47d 30be 7d29 9bbe 7d6a 1a3e
00000150: e083 eebe dafc 52bd 5037 25bc b72e 59be
00000160: fc83 15be ee01 babe ed00 eebd f630 7abe
00000170: 6f42 12bf c878 24be 09e3 973c 5750 babe
00000180: 57c3 453e 59da 41be d68a 323d 8e82 c4be
00000190: 0e27 4abd f0d6 7dbe b2fc 253c 5dce 723d
000001a0: beaa cabd c1f2 d4bd fdfc f73d 87fc 40be
000001b0: cae6 07bc f238 613e 7d4f 023e 27c4 e9bd
000001c0: c7b2 f23d 5ce2 39bc 5afc 50bd c0da ee3d
000001d0: f29a 643e ddc8 d8bb 2a26 febd 9552 333d
000001e0: 4a8a 46be 26a7 823e d86a ad3a a837 ff3e
000001f0: 359d a8bc 1798 243e f4ac 383e 72c0 fabe
00000200: 7429 56bd 25e7 f6bc 3edb 353e 8193 35be
00000210: 4600 2bbc 39c1 03bd 166a b73b 2d63 e2bc
00000220: deb4 8c3e c33d e5bd 9381 563d 265b d43d
00000230: 943b c73c 98c5 833e 924b 523e 9d85 503d
00000240: abce b43d f166 f43c e0f9 2dbd ddfa 0a3e
00000250: d56d da3d cfe7 b7bd 4e18 d43d 0011 edbd
00000260: cc5b cfbc 2250 bbbd 2ec5 0d3c 2f5f 81bd
00000270: bfd7 40be d1c4 61be ffde 61be 4871 bcbd
00000280: b7de e4bc dd07 8c3c f479 3abe 9bdd 6bbd
00000290: 2453 6a3d db42 8cbb 8fca 90bc 8ed3 963b
000002a0: ff59 9f3d 26df 6dbd de64 86bd a5f5 65bd
000002b0: f84a efbc 095f 853b 9ad4 6c3e 6c1c fd3d
000002c0: 80fb 183e 1e18 a2bd 9aec 443c e079 0bbc
000002d0: c7ed 2abe b159 7abd ef2b 1c3e b9ae bd3c
000002e0: d5db 2dbe 5b4b 63be 8690 ac3d 5458 f9bd
000002f0: d65c 9bbd a2fd 50bc 07de 8a3e 3057 473c
00000300: cbc9 d3bd 47fe 39be 2053 453e 85d7 80bd
00000310: da41 0c3e e7e7 0bbe afe1 e4bd f081 f53c
